…
3,3), activation='relu'),\n  tf.keras.layers.MaxPooling2D(2,2),\n\n  # Add the same layers as before\n  tf.keras.layers.Flatten(),\n  tf.keras.layers.Dense(128, activation='relu'),\n  tf.keras.layers.Dense(10, activation='softmax')\n])\n\n\n\n\nCode\n# Print the model summary\nmodel.summary()\n\n\nModel: \"sequential_2\"\n\n\n\n┏━━━━━━━━━━━━━━━━━━━━━━━━━━━━━━━━━┳━━━━━━━━━━━━━━━━━━━━━━━━┳━━━━━━━━━━━━━━━┓\n┃ Layer (type)                    ┃ Output Shape           ┃       Param # ┃\n┡━━━━━━━━━━━━━━━━━━━━━━━━━━━━━━━━━╇━━━━━━━━━━━━━━━━━━━━━━━━╇━━━━━━━━━━━━━━━┩\n│ conv2d_4 (Conv2D)               │ (None, 26, 26, 32)     │           320 │\n├─────────────────────────────────┼────────────────────────┼───────────────┤\n│ max_pooling2d_4 (MaxPooling2D)  │ (None, 13, 13, 32)     │             0 │\n├─────────────────────────────────┼────────────────────────┼───────────────┤\n│ conv2d_5 (Conv2D)               │ (None, 11, 11, 32)     │         9,248 │\n├─────────────────────────────────┼────────────────────────┼───────────────┤\n│ max_pooling2d_5 (MaxPooling2D)  │ (None, 5, 5, 32)       │             0 │\n├─────────────────────────────────┼────────────────────────┼───────────────┤\n│ flatten_2 (Flatten)             │ (None, 800)            │             0 │\n├─────────────────────────────────┼────────────────────────┼───────────────┤\n│ dense_4 (Dense)                 │ (None, 128)            │       102,528 │\n├─────────────────────────────────┼────────────────────────┼───────────────┤\n│ dense_5 (Dense)                 │ (None, 10)             │         1,290 │\n└─────────────────────────────────┴────────────────────────┴───────────────┘\n\n\n\n Total params: 113,386 (442.91 KB)\n\n\n\n Trainable params: 113,386 (442.91 KB)\n\n\n\n Non-trainable params: 0 (0.00 B)\n\n\n\n\n\n4 compile model\n\n\nCode\n# the v2.11+ optimizer `tf.keras.optimizers.Adam` runs slowly on M1/M2 Macs\nmodel.compile(optimizer = tf.optimizers.Adam(),\n              loss = 'spar
…
ling2D(2,2),\n    # Flatten the results to feed into a DNN\n    tf.keras.layers.Flatten(),\n    tf.keras.layers.Dropout(0.5),\n    # 512 neuron hidden layer\n    tf.keras.layers.Dense(512, activation='relu'),\n    tf.keras.layers.Dense(3, activation='softmax')\n])\n\n\n\n\nCode\nmodel.summary()\n\n\nModel: \"sequential\"\n\n\n\n┏━━━━━━━━━━━━━━━━━━━━━━━━━━━━━━━━━┳━━━━━━━━━━━━━━━━━━━━━━━━┳━━━━━━━━━━━━━━━┓\n┃ Layer (type)                    ┃ Output Shape           ┃       Param # ┃\n┡━━━━━━━━━━━━━━━━━━━━━━━━━━━━━━━━━╇━━━━━━━━━━━━━━━━━━━━━━━━╇━━━━━━━━━━━━━━━┩\n│ conv2d (Conv2D)                 │ (None, 148, 148, 64)   │         1,792 │\n├─────────────────────────────────┼────────────────────────┼───────────────┤\n│ max_pooling2d (MaxPooling2D)    │ (None, 74, 74, 64)     │             0 │\n├─────────────────────────────────┼────────────────────────┼───────────────┤\n│ conv2d_1 (Conv2D)               │ (None, 72, 72, 64)     │        36,928 │\n├─────────────────────────────────┼────────────────────────┼───────────────┤\n│ max_pooling2d_1 (MaxPooling2D)  │ (None, 36, 36, 64)     │             0 │\n├─────────────────────────────────┼────────────────────────┼───────────────┤\n│ conv2d_2 (Conv2D)               │ (None, 34, 34, 128)    │        73,856 │\n├─────────────────────────────────┼────────────────────────┼───────────────┤\n│ max_pooling2d_2 (MaxPooling2D)  │ (None, 17, 17, 128)    │             0 │\n├─────────────────────────────────┼────────────────────────┼───────────────┤\n│ conv2d_3 (Conv2D)               │ (None, 15, 15, 128)    │       147,584 │\n├─────────────────────────────────┼────────────────────────┼───────────────┤\n│ max_pooling2d_3 (MaxPooling2D)  │ (None, 7, 7, 128)      │             0 │\n├─────────────────────────────────┼────────────────────────┼───────────────┤\n│ flatten (Flatten)               │ (None, 6272)           │             0 │\n├─────────────────────────────────┼────────────────────────┼───────────────┤\n│ dropout (Dropout)               │ (None, 6272)           │             0 │\n├─────────────────────────────────┼────────────────────────┼───────────────┤\n│ dense (Dense)                   │ (None, 512)            │     3,211,776 │\n├─────────────────────────────────┼────────────────────────┼───────────────┤\n│ dense_1 (Dense)                 │ (None, 3)              │         1,539 │\n└─────────────────────────────────┴────────────────────────┴───────────────┘\n\n\n\n Total params: 3,473,475 (13.25 MB)\n\n\n\n Trainable params: 3,473,475 (13.25 MB)\n\n\n\n Non-trainable params: 0 (0.00 B)\n\n\n\n\n\n4 complie model\n\n\nCode\nmodel.compile(loss = 'categorical_crossentropy', optimizer='rmsprop', metrics=['accuracy'])\n\n\n\n\n5 Callbacks\n\n\nCode\nclass myCallback(tf.keras.
…
pand_dims(x, axis=-1),\n                      input_shape=[window_size]),\n  tf.keras.layers.SimpleRNN(40, return_sequences=True),\n  tf.keras.layers.SimpleRNN(40),\n  tf.keras.layers.Dense(1),\n  tf.keras.layers.Lambda(lambda x: x * 100.0)\n])\n\n# Print the model summary\nmodel_tune.summary()\n\n\nModel: \"sequential\"\n\n\n\n┏━━━━━━━━━━━━━━━━━━━━━━━━━━━━━━━━━┳━━━━━━━━━━━━━━━━━━━━━━━━┳━━━━━━━━━━━━━━━┓\n┃ Layer (type)                    ┃ Output Shape           ┃       Param # ┃\n┡━━━━━━━━━━━━━━━━━━━━━━━━━━━━━━━━━╇━━━━━━━━━━━━━━━━━━━━━━━━╇━━━━━━━━━━━━━━━┩\n│ lambda (Lambda)                 │ (None, 20, 1)          │             0 │\n├─────────────────────────────────┼────────────────────────┼───────────────┤\n│ simple_rnn (SimpleRNN)          │ (None, 20, 40)         │         1,680 │\n├─────────────────────────────────┼────────────────────────┼───────────────┤\n│ simple_rnn_1 (SimpleRNN)        │ (None, 40)             │         3,240 │\n├─────────────────────────────────┼────────────────────────┼───────────────┤\n│ dense (Dense)                   │ (None, 1)              │            41 │\n├─────────────────────────────────┼────────────────────────┼───────────────┤\n│ lambda_1 (Lambda)               │ (None, 1)              │             0 │\n└─────────────────────────────────┴────────────────────────┴───────────────┘\n\n\n\n Total params: 4,961 (19.38 KB)\n\n\n\n Trainable params: 4,961 (19.38 KB)\n\n\n\n Non-trainable params: 0 (0.00 B)\n\n\n\nUsing Huber loss\n\n\nCode\n# Set the learning rate scheduler\nlr_schedule = tf.keras.callbacks.LearningRateScheduler(\n    lambda epoch: 1e-8 * 10**(epoch / 20))\n\n# Initialize the optimi
…
n_sequences=True)),\n    tf.keras.layers.Bidirectional(tf.keras.layers.LSTM(32, return_sequences=True)),\n  tf.keras.layers.Bidirectional(tf.keras.layers.LSTM(32)),\n  tf.keras.layers.Dense(1),\n  tf.keras.layers.Lambda(lambda x: x * 100.0)\n])\n\n# Print the model summary\nmodel_tune.summary()\n\n\nModel: \"sequential\"\n\n\n\n┏━━━━━━━━━━━━━━━━━━━━━━━━━━━━━━━━━┳━━━━━━━━━━━━━━━━━━━━━━━━┳━━━━━━━━━━━━━━━┓\n┃ Layer (type)                    ┃ Output Shape           ┃       Param # ┃\n┡━━━━━━━━━━━━━━━━━━━━━━━━━━━━━━━━━╇━━━━━━━━━━━━━━━━━━━━━━━━╇━━━━━━━━━━━━━━━┩\n│ lambda (Lambda)                 │ (None, 20, 1)          │             0 │\n├─────────────────────────────────┼────────────────────────┼───────────────┤\n│ bidirectional (Bidirectional)   │ (None, 20, 64)         │         8,704 │\n├─────────────────────────────────┼────────────────────────┼───────────────┤\n│ bidirectional_1 (Bidirectional) │ (None, 20, 64)         │        24,832 │\n├─────────────────────────────────┼────────────────────────┼───────────────┤\n│ bidirectional_2 (Bidirectional) │ (None, 64)             │        24,832 │\n├─────────────────────────────────┼────────────────────────┼───────────────┤\n│ dense (Dense)                   │ (None, 1)              │            65 │\n├─────────────────────────────────┼────────────────────────┼───────────────┤\n│ lambda_1 (Lambda)               │ (None, 1)              │             0 │\n└─────────────────────────────────┴────────────────────────┴───────────────┘\n\n\n\n Total params: 58,433 (228.25 KB)\n\n\n\n Trainable params: 58,433 (228.25 KB)\n\n\n\n Non-trainable params: 0 (0.00 B)\n\n\n\n\n\n9 Tune the Learning Rate\nusing Huber loss\n\n\nCode\n# Set the learning rate scheduler\nlr_schedule = tf.keras.callbacks.LearningRateScheduler(\n    lambda epoch: 1e-8 * 10**(epoch
…
                activation=\"relu\",\n                      input_shape=[window_size, 1]),\n  tf.keras.layers.LSTM(64, return_sequences=True),\n  tf.keras.layers.LSTM(64),\n  tf.keras.layers.Dense(1),\n  tf.keras.layers.Lambda(lambda x: x * 400)\n])\n\n# Print the model summary\nmodel.summary()\n\n\nModel: \"sequential\"\n\n\n\n┏━━━━━━━━━━━━━━━━━━━━━━━━━━━━━━━━━┳━━━━━━━━━━━━━━━━━━━━━━━━┳━━━━━━━━━━━━━━━┓\n┃ Layer (type)                    ┃ Output Shape           ┃       Param # ┃\n┡━━━━━━━━━━━━━━━━━━━━━━━━━━━━━━━━━╇━━━━━━━━━━━━━━━━━━━━━━━━╇━━━━━━━━━━━━━━━┩\n│ conv1d (Conv1D)                 │ (None, 20, 64)         │           256 │\n├─────────────────────────────────┼────────────────────────┼───────────────┤\n│ lstm (LSTM)                     │ (None, 20, 64)         │        33,024 │\n├─────────────────────────────────┼────────────────────────┼───────────────┤\n│ lstm_1 (LSTM)                   │ (None, 64)             │        33,024 │\n├─────────────────────────────────┼────────────────────────┼───────────────┤\n│ dense (Dense)                   │ (None, 1)              │            65 │\n├─────────────────────────────────┼────────────────────────┼───────────────┤\n│ lambda (Lambda)                 │ (None, 1)              │             0 │\n└─────────────────────────────────┴────────────────────────┴───────────────┘\n\n\n\n Total params: 66,369 (259.25 KB)\n\n\n\n Trainable params: 66,369 (259.25 KB)\n\n\n\n Non-trainable params: 0 (0.00 B)\n\n\n\n\n\nCode\n# Get initial weights\ninit_weights = model.get_weights()\n\n\n\n\nCode\n# Set the learning rate scheduler\nlr_schedule = tf.keras.callbacks.LearningRateScheduler(\n    lambda
…
